----------------------------------------------------------------
        Layer (type)               Output Shape         Param #
================================================================
   ConvTranspose2d-1            [-1, 512, 4, 4]       2,097,664
       BatchNorm2d-2            [-1, 512, 4, 4]           1,024
               GLU-3            [-1, 256, 4, 4]               0
          Upsample-4            [-1, 256, 8, 8]               0
            Conv2d-5           [-1, 1024, 8, 8]       2,360,320
       BatchNorm2d-6           [-1, 1024, 8, 8]           2,048
               GLU-7            [-1, 512, 8, 8]               0
     UpSampleBlock-8            [-1, 512, 8, 8]               0
          Upsample-9          [-1, 512, 16, 16]               0
           Conv2d-10         [-1, 1024, 16, 16]       4,719,616
      BatchNorm2d-11         [-1, 1024, 16, 16]           2,048
              GLU-12          [-1, 512, 16, 16]               0
    UpSampleBlock-13          [-1, 512, 16, 16]               0
         Upsample-14          [-1, 512, 32, 32]               0
           Conv2d-15          [-1, 512, 32, 32]       2,359,808
      BatchNorm2d-16          [-1, 512, 32, 32]           1,024
              GLU-17          [-1, 256, 32, 32]               0
    UpSampleBlock-18          [-1, 256, 32, 32]               0
         Upsample-19          [-1, 256, 64, 64]               0
           Conv2d-20          [-1, 256, 64, 64]         590,080
      BatchNorm2d-21          [-1, 256, 64, 64]             512
              GLU-22          [-1, 128, 64, 64]               0
    UpSampleBlock-23          [-1, 128, 64, 64]               0
         Upsample-24        [-1, 128, 128, 128]               0
           Conv2d-25        [-1, 128, 128, 128]         147,584
      BatchNorm2d-26        [-1, 128, 128, 128]             256
              GLU-27         [-1, 64, 128, 128]               0
    UpSampleBlock-28         [-1, 64, 128, 128]               0
AdaptiveAvgPool2d-29            [-1, 512, 4, 4]               0
           Conv2d-30             [-1, 32, 1, 1]         262,176
        LeakyReLU-31             [-1, 32, 1, 1]               0
           Conv2d-32             [-1, 64, 1, 1]           2,112
          Sigmoid-33             [-1, 64, 1, 1]               0
              SLE-34         [-1, 64, 128, 128]               0
         Upsample-35         [-1, 64, 256, 256]               0
           Conv2d-36         [-1, 64, 256, 256]          36,928
      BatchNorm2d-37         [-1, 64, 256, 256]             128
              GLU-38         [-1, 32, 256, 256]               0
    UpSampleBlock-39         [-1, 32, 256, 256]               0
AdaptiveAvgPool2d-40            [-1, 512, 4, 4]               0
           Conv2d-41             [-1, 16, 1, 1]         131,088
        LeakyReLU-42             [-1, 16, 1, 1]               0
           Conv2d-43             [-1, 32, 1, 1]             544
          Sigmoid-44             [-1, 32, 1, 1]               0
              SLE-45         [-1, 32, 256, 256]               0
         Upsample-46         [-1, 32, 512, 512]               0
           Conv2d-47          [-1, 6, 512, 512]           1,734
      BatchNorm2d-48          [-1, 6, 512, 512]              12
              GLU-49          [-1, 3, 512, 512]               0
    UpSampleBlock-50          [-1, 3, 512, 512]               0
AdaptiveAvgPool2d-51            [-1, 256, 4, 4]               0
           Conv2d-52              [-1, 3, 1, 1]          12,291
        LeakyReLU-53              [-1, 3, 1, 1]               0
           Conv2d-54              [-1, 3, 1, 1]              12
          Sigmoid-55              [-1, 3, 1, 1]               0
              SLE-56          [-1, 3, 512, 512]               0
         Upsample-57        [-1, 3, 1024, 1024]               0
           Conv2d-58        [-1, 6, 1024, 1024]             168
      BatchNorm2d-59        [-1, 6, 1024, 1024]              12
              GLU-60        [-1, 3, 1024, 1024]               0
    UpSampleBlock-61        [-1, 3, 1024, 1024]               0
           Conv2d-62        [-1, 3, 1024, 1024]              84
             Tanh-63        [-1, 3, 1024, 1024]               0
================================================================
Total params: 12,729,273
Trainable params: 12,729,273
Non-trainable params: 0
----------------------------------------------------------------
Input size (MB): 0.00
Forward/backward pass size (MB): 594.94
Params size (MB): 48.56
Estimated Total Size (MB): 643.50
----------------------------------------------------------------