With ratio = 16

----------------------------------------------------------------
        Layer (type)               Output Shape         Param #
================================================================
   ConvTranspose2d-1            [-1, 512, 4, 4]       2,097,664
       BatchNorm2d-2            [-1, 512, 4, 4]           1,024
               GLU-3            [-1, 256, 4, 4]               0
          Upsample-4            [-1, 256, 8, 8]               0
              Blur-5            [-1, 256, 8, 8]               0
            Conv2d-6           [-1, 1024, 8, 8]       2,360,320
       BatchNorm2d-7           [-1, 1024, 8, 8]           2,048
               GLU-8            [-1, 512, 8, 8]               0
     UpSampleBlock-9            [-1, 512, 8, 8]               0
         Upsample-10          [-1, 512, 16, 16]               0
             Blur-11          [-1, 512, 16, 16]               0
           Conv2d-12         [-1, 1024, 16, 16]       4,719,616
      BatchNorm2d-13         [-1, 1024, 16, 16]           2,048
              GLU-14          [-1, 512, 16, 16]               0
    UpSampleBlock-15          [-1, 512, 16, 16]               0
           Conv2d-16            [-1, 1, 16, 16]             513
          Softmax-17               [-1, 1, 256]               0
           Conv2d-18           [-1, 8192, 1, 1]       4,202,496
        LayerNorm-19           [-1, 8192, 1, 1]          16,384
           Conv2d-20            [-1, 512, 1, 1]       4,194,816
               GC-21          [-1, 512, 16, 16]               0
         Upsample-22          [-1, 512, 32, 32]               0
             Blur-23          [-1, 512, 32, 32]               0
           Conv2d-24          [-1, 512, 32, 32]       2,359,808
      BatchNorm2d-25          [-1, 512, 32, 32]           1,024
              GLU-26          [-1, 256, 32, 32]               0
    UpSampleBlock-27          [-1, 256, 32, 32]               0
           Conv2d-28            [-1, 1, 32, 32]             257
          Softmax-29              [-1, 1, 1024]               0
           Conv2d-30           [-1, 4096, 1, 1]       1,052,672
        LayerNorm-31           [-1, 4096, 1, 1]           8,192
           Conv2d-32            [-1, 256, 1, 1]       1,048,832
               GC-33          [-1, 256, 32, 32]               0
         Upsample-34          [-1, 256, 64, 64]               0
             Blur-35          [-1, 256, 64, 64]               0
           Conv2d-36          [-1, 256, 64, 64]         590,080
      BatchNorm2d-37          [-1, 256, 64, 64]             512
              GLU-38          [-1, 128, 64, 64]               0
    UpSampleBlock-39          [-1, 128, 64, 64]               0
           Conv2d-40            [-1, 1, 64, 64]             129
          Softmax-41              [-1, 1, 4096]               0
           Conv2d-42           [-1, 2048, 1, 1]         264,192
        LayerNorm-43           [-1, 2048, 1, 1]           4,096
           Conv2d-44            [-1, 128, 1, 1]         262,272
               GC-45          [-1, 128, 64, 64]               0
         Upsample-46        [-1, 128, 128, 128]               0
             Blur-47        [-1, 128, 128, 128]               0
           Conv2d-48        [-1, 128, 128, 128]         147,584
      BatchNorm2d-49        [-1, 128, 128, 128]             256
              GLU-50         [-1, 64, 128, 128]               0
    UpSampleBlock-51         [-1, 64, 128, 128]               0
           Conv2d-52          [-1, 1, 128, 128]              65
          Softmax-53             [-1, 1, 16384]               0
           Conv2d-54           [-1, 1024, 1, 1]          66,560
        LayerNorm-55           [-1, 1024, 1, 1]           2,048
           Conv2d-56             [-1, 64, 1, 1]          65,600
               GC-57         [-1, 64, 128, 128]               0
         Upsample-58         [-1, 64, 256, 256]               0
             Blur-59         [-1, 64, 256, 256]               0
           Conv2d-60         [-1, 64, 256, 256]          36,928
      BatchNorm2d-61         [-1, 64, 256, 256]             128
              GLU-62         [-1, 32, 256, 256]               0
    UpSampleBlock-63         [-1, 32, 256, 256]               0
           Conv2d-64          [-1, 1, 256, 256]              33
          Softmax-65             [-1, 1, 65536]               0
           Conv2d-66            [-1, 512, 1, 1]          16,896
        LayerNorm-67            [-1, 512, 1, 1]           1,024
           Conv2d-68             [-1, 32, 1, 1]          16,416
               GC-69         [-1, 32, 256, 256]               0
         Upsample-70         [-1, 32, 512, 512]               0
             Blur-71         [-1, 32, 512, 512]               0
           Conv2d-72          [-1, 6, 512, 512]           1,734
      BatchNorm2d-73          [-1, 6, 512, 512]              12
              GLU-74          [-1, 3, 512, 512]               0
    UpSampleBlock-75          [-1, 3, 512, 512]               0
         Upsample-76        [-1, 3, 1024, 1024]               0
             Blur-77        [-1, 3, 1024, 1024]               0
           Conv2d-78        [-1, 6, 1024, 1024]             168
      BatchNorm2d-79        [-1, 6, 1024, 1024]              12
              GLU-80        [-1, 3, 1024, 1024]               0
    UpSampleBlock-81        [-1, 3, 1024, 1024]               0
           Conv2d-82        [-1, 3, 1024, 1024]              84
             Tanh-83        [-1, 3, 1024, 1024]               0
================================================================
Total params: 23,544,543
Trainable params: 23,544,543
Non-trainable params: 0
----------------------------------------------------------------
Input size (MB): 0.00
Forward/backward pass size (MB): 746.49
Params size (MB): 89.82
Estimated Total Size (MB): 836.30
----------------------------------------------------------------

[Layers]
…
